models/model.pth (torch, 95967 bytes, 3 tensors)

0.weight f4 [30, 784]
000000 a2 ae df 3c 2e d6 f2 3c 38 15 09 bc 35 61 06 3d
       0.027304951 0.029643144 -0.008366875 0.032807548
000010 f8 34 00 bc 20 27 ec 3b 9c 70 8e bc 78 d2 ab 3c
       -0.007825129 0.0072068125 -0.01738768 0.020974383
000020 07 f5 00 3d 7e a3 d6 bc 4e 4d fe 3c a8 07 db 3b
       0.031483676 -0.026201006 0.031042721 0.0066842623
000030 86 27 d8 3c 10 7e 9e 3b 10 13 8d 3c dc 3b a5 bb
       0.026386034 0.004836805 0.017221004 -0.005042536
000040 06 8a e1 3c 88 fa ac 3b 83 95 88 bc e4 26 15 3c
       0.027531635 0.005278889 -0.016672855 0.0091035105
000050 63 cc 86 bc 28 3e 89 bb 20 a9 6d bc 5a 15 c2 3c
       -0.016454881 -0.004188318 -0.014505655 0.023691822
000060 7a f2 e6 bc e3 e0 86 bc c6 3a 25 bc 48 ea af bc
       -0.028191794 -0.016464656 -0.010084813 -0.021474019
000070 10 e9 5c 3b bd 7b 10 bd a9 1c 04 3d b8 87 f8 bc
       0.0033708252 -0.035274256 0.032253895 -0.030338153
000080 86 df e1 3c 08 c2 c2 3b a0 ff 3d bc 66 cb b4 3c
       0.027572405 0.0059435405 -0.01159659 0.022069644
000090 d0 63 b6 3b 12 63 ec 3c e0 de 7f 3b d2 89 38 bc
       0.005566098 0.028855834 0.0039042756 -0.011263328
0000a0 e4 37 1d 3c c0 ad 1e bc 04 43 76 3c d7 94 02 3d
       0.009595845 -0.00968498 0.015030626 0.031880226
0000b0 aa fb a8 3c 33 f1 7f bc 22 e4 a8 3c 10 65 d1 3b
       0.020627815 -0.015621471 0.020616595 0.0063902214
0000c0 fa 93 94 3c e3 52 b2 bc 3a cf 10 bd 7c 13 62 bc
       0.018136967 -0.02176804 -0.035353877 -0.013798591
0000d0 b3 68 e0 bc f6 10 f0 3c 1c 8a 28 3c c4 5f 72 3c
       -0.027393674 0.029304963 0.010286834 0.01479334
0000e0 d8 0e 39 3c c0 dd 22 ba 06 f8 e4 3c 40 e0 cf bc
       0.011295043 -0.0006212853 0.027950298 -0.025375485
0000f0 00 5f 13 3b 18 b1 c7 bc 14 6e 34 3c 86 75 4b bc
       0.0022487044 -0.024376437 0.011012573 -0.0124181565
000100 1d ce 32 3c b0 d1 f3 bb 06 a8 f2 3c 5c 68 ad bc
       0.010913399 -0.007440768 0.029621135 -0.021167926
000110 30 7d ae bc e3 7f ae bc 63 a3 03 3d 49 77 44 3c
       -0.021299928 -0.021301216 0.03213824 0.01199133
000120 04 40 0d 3d c7 65 f0 bc 25 dc 10 bd f2 9d e4 bc
       0.03448488 -0.029345406 -0.035366196 -0.027907345
000130 d6 c8 c4 bc 2e 04 6d 3c 6e 88 51 3c d2 1a f3 3c
       -0.024021547 0.014466329 0.012788875 0.029675875
000140 60 17 97 bc 0c 73 c7 bc 66 3b 9b 3c 72 84 6c bc
       -0.018443763 -0.02434685 0.018949222 -0.014435874
000150 8e 91 b1 3c d2 da 0a bc 42 5d a7 3c 93 51 e3 bc
       0.021675851 -0.008475022 0.020430211 -0.027748859
000160 67 a5 93 bc 6f 65 32 3c 3a 68 f7 3b 7f 9d 17 bc
       -0.018023206 0.0108884415 0.0075502666 -0.009253859
000170 d8 b6 ac 3c 7c 20 c8 3c 06 e3 d0 bc 7d 84 9c bc
       0.02108328 0.024429552 -0.025498878 -0.019106144
000180 20 7e 04 3d e1 81 4d bc b9 87 48 bc 61 9c 0a bd
       0.032346845 -0.012543173 -0.01223939 -0.03384054
000190 86 14 9e bc 5a db 26 3c b9 25 3b bb ec fa c6 bc
       -0.019296896 0.010184133 -0.002855642 -0.02428957
0001a0 10 8f ef 3a 26 44 c0 bc ce 03 f2 bc a2 55 9f bc
       0.0018276889 -0.023469996 -0.02954283 -0.019450013
0001b0 39 2f ff bc d0 f2 b9 bc 4b 45 12 3d a8 09 dd 3b
       -0.031150447 -0.02269879 0.035710614 0.006745536
0001c0 44 51 34 3c 3b 70 08 bd 3c 27 c0 bc ab c4 42 bc
       0.011005703 -0.033310156 -0.023456208 -0.01188771
0001d0 9a ff b6 3b bd ae 00 bd 5e 01 7b bc b0 22 ae bc
       0.0055846693 -0.031416643 -0.01532015 -0.021256775
0001e0 ce 57 01 3a a1 d7 52 bc 15 ff 08 bb ea 91 c5 bc
       0.00049340434 -0.012868793 -0.0020903994 -0.024117429
0001f0 e8 61 c6 bc c1 bf a1 bc 55 b6 1b bc b8 ec d4 bc
       -0.024216607 -0.019744756 -0.009503921 -0.025991783
000200 1f 08 09 3d bc fa 60 bb 68 05 10 3d 1a 3f 75 3c
       0.03345501 -0.0034329137 0.035161406 0.014968658
000210 ea c8 d5 bc e0 fa ef 3c a6 c0 df bb a3 45 49 bc
       -0.02609678 0.029294431 -0.0068283854 -0.012284669
000220 7d a5 ed bc a1 ca 10 bd 2d 92 27 3c 48 a4 ff bb
       -0.029009575 -0.035349492 0.010227722 -0.0078015663
000230 44 cf 63 3c 4a 1a f0 bc ac 36 d9 3c de c3 d6 bc
       0.013904396 -0.02930941 0.026515327 -0.026216444
000240 9b dd c9 bb d5 6a f7 3b 0c 4b 9b 3c 4a f9 f6 3c
       -0.0061604506 0.007550577 0.018956684 0.030148167
000250 e5 9f 0d 3d 3f 0c d3 bc cf fe 39 3c 27 17 5d bc
       0.034576315 -0.025762675 0.011352255 -0.0134942895
000260 74 ea bb ba f6 ae b7 bc b6 61 1c 3d 84 fd aa bc
       -0.001433684 -0.022422295 0.038179122 -0.020872839
000270 75 01 c5 3c d1 75 8d 3c 6b b5 91 3c 9d 2f 57 bc
       0.024048546 0.017268093 0.017786702 -0.0131339105
000280 cb 08 21 3d 33 13 67 3c 9a 7a 2b 3c 46 dd de bc
       0.039315026 0.014103699 0.010466242 -0.02720512
000290 e8 f9 8c 3c 46 7d 98 bb 4f ac 84 bc c9 51 fb 3c
       0.017209008 -0.0046536056 -0.016195444 0.030678647
0002a0 f8 74 02 3c 75 df a1 bc ce 14 94 bc 20 8d df ba
       0.007962458 -0.019759873 -0.018076327 -0.0017055608
0002b0 2e ea a3 3c 60 a5 0e bc 5e 94 9c bc 07 46 15 bc
       0.020009127 -0.008706421 -0.019113716 -0.009110934
0002c0 a1 3d b0 bc 61 49 9b 3c 28 6f 06 3d ab a5 e9 bc
       -0.021513762 0.018955888 0.03282085 -0.02852138
0002d0 c5 c3 84 3c 32 1f ea 3c c4 2f 8b 3c bf 47 93 bb
       0.016206631 0.028579328 0.01699055 -0.004494637
0002e0 0a 2d d5 3c ae 4d d9 3c ab 39 a3 3c e0 cb 4c ba
       0.026022453 0.026526298 0.01992496 -0.0007812362
0002f0 1e df 8e bb d4 64 01 3c ce 18 21 bb c0 2c c1 bb
       -0.0043600937 0.007897574 -0.0024581435 -0.005895227
000300 25 b7 db 3c c9 3c 06 3d fe 57 30 bb ce 75 01 bc
       0.026820729 0.032772813 -0.0026907916 -0.007901622
000310 00 9e 08 3a 60 c0 0b bb f7 ac 0c 3c 08 fa 23 3c
       0.0005211532 -0.0021324381 0.00858616 0.010008343
000320 38 be 04 bd 0a 3d 53 bc 46 a7 03 3d 88 da 97 3c
       -0.03240797 -0.012892971 0.032141946 0.018536821
000330 b8 21 b1 3b 22 da 7d bc e0 d7 87 bc fc 51 d7 bc
       0.005405631 -0.015493901 -0.01658243 -0.02628421
000340 18 d6 0c bb e4 55 b5 3c b5 f7 ff 3c 89 03 c1 3c
       -0.0021489915 0.022135682 0.031246046 0.023561256
000350 b6 9e ca bc 45 ac 80 bc 05 5a 21 bb db f5 13 3d
       -0.024733882 -0.015707145 -0.0024620306 0.036123138
000360 bd bb e9 3b 2b 94 14 bc f4 fc 75 3c eb 9c 3a bc
       0.007132976 -0.009068529 0.015013922 -0.011389951
000370 61 3a 9f bc 15 09 e8 3c 33 0e 7f bc 59 e6 e8 bb
       -0.019437017 0.028324643 -0.01556735 -0.0071075377
000380 92 86 11 bd 3a cf c3 3c 76 a9 dd 3c 0f 41 55 3c
       -0.035528727 0.023902524 0.027058344 0.013015999
000390 72 c1 cb bc da 1e 0c bd 2e 0e d8 bc f5 8d ff 3c
       -0.024872515 -0.03420911 -0.026373949 0.03119562
0003a0 f1 67 be 3c 24 54 12 3d c4 e8 c0 3c a9 9c 7b 3c
       0.023242922 0.035724774 0.023548491 0.015357175
0003b0 27 82 05 3c f8 44 9e bc 7d c6 cb bc f5 2d 01 bd
       0.0081487065 -0.019319996 -0.02487492 -0.03153797
0003c0 ec de 72 3c f6 67 99 bc 86 e2 12 bc c3 88 bd bc
       0.0148236565 -0.01872633 -0.00896514 -0.023136502
0003d0 4f 50 28 bc dc 5e f6 bc e1 b0 e9 bc 95 d1 21 3c
       -0.010273053 -0.03007453 -0.028526725 0.009876628
0003e0 00 29 0a bc e4 7a c9 3c f8 44 27 bc 5f e8 d5 bc
       -0.008432627 0.024594732 -0.0102093145 -0.02611178
0003f0 e4 7b ce bb c0 d2 8d bc c7 08 33 bc a5 43 0b bd
       -0.00630139 -0.017312407 -0.010927386 -0.034000058

0.bias f4 [30]
000000 36 63 21 3d bc fd 08 be 7e 59 91 bd a2 a9 37 be
       0.039401256 -0.13378042 -0.070971474 -0.17935804
000010 48 0e 30 bb f9 7d 92 bc 13 a6 74 bd 33 0e be 3c
       -0.002686398 -0.017882334 -0.059728693 0.02320013
000020 d5 6c 11 bd 87 4c 6f 3e c0 fc ea bd 68 df 2a 3e
       -0.03550418 0.23369037 -0.114739895 0.16686785
000030 7e 9b 4b bd ad 83 c9 3c c1 24 94 3e 72 a7 f5 3c
       -0.049708836 0.02459892 0.2893429 0.02998707
000040 57 a7 2b 3d 05 da ec 3d c2 d1 fe 3b b0 b4 cc 3d
       0.041907635 0.115650214 0.00777647 0.09995401
000050 32 89 4e be f8 23 8f bb 18 be 4b bd cf ea 68 3d
       -0.20169523 -0.0043683015 -0.049741834 0.056864556
000060 65 fe ec 3b 62 5b 55 bd 5f a3 64 3e 24 0e 7f bc
       0.0072324746 -0.052089103 0.22327946 -0.015567336
000070 3b 8f f7 3c f0 41 ff 3c
       0.030219665 0.031159371

2.weight f4 [1, 30]
000000 58 ee 0e be 3b 53 1e 3f 17 f1 ee 3e c4 e7 5e 3f
       -0.13958108 0.6184575 0.46668312 0.87072396
000010 30 2a 0a 3e 2b 21 35 3e 20 11 bf 3e 03 fd ae bd
       0.13492656 0.17688434 0.37317753 -0.08544352
000020 74 20 55 3e 01 89 60 bf d9 d1 1c 3f 8c b9 21 bf
       0.20813161 -0.8770905 0.612577 -0.6317375
000030 de 2d d7 3e d7 db 71 3d 7d 9d 8f bf 95 c2 06 be
       0.4202718 0.059047546 -1.1219937 -0.13160165
000040 26 df 48 be f4 a8 c7 be 14 cb 1c 3d 79 31 b2 be
       -0.19616374 -0.38996089 0.038279608 -0.3480337
000050 23 c3 85 3f 98 77 ed bc f4 3d 5e 3e 48 e9 5c be
       1.0450176 -0.02898769 0.2170332 -0.21573365
000060 81 fa 49 be 43 ed e3 3e 04 dd 4e bf 72 5b 18 3e
       -0.19724466 0.44516954 -0.80805993 0.14878634
000070 18 ed 1d be 42 a9 1f be
       -0.15422475 -0.1559191
