models/model.pth (torch, 95967 bytes, 3 tensors)

0.weight f4 [30, 784]
00000000: 14c7 6f3c 993d 043d 585f ba3c e295 e33c
00000010: 4689 f53c 083d bd3b 09ba 0a3d b227 72bc
00000020: e219 9a3c 849e 573c 8ca1 b53c d249 5ebc
00000030: f4a7 893c 0a10 a0bc 4852 99bb 3a89 d7bc
00000040: b0f0 6dbb 06cb 4bbc 130a 0bbd f2e7 c53c
00000050: cb7c 11bd 4fc4 103d d4a0 5f3c 6e4b f23c
00000060: 9243 54bc 12b8 ff3c c50e dbbc 400f 803c
00000070: d34b bdbc 38c6 273c 6654 e73c 5ad9 c53c
00000080: a83d b43b 0aaf 6cbc 5e48 a7bc 4c9c e1bc
00000090: 8735 8fbc dc35 9f3c 30a1 4b3b 181d 363c
000000a0: f9cb 733c fc4d 053c f8dd e4bc 7adf 5d3c
000000b0: bf8f 81bc d86e c5bb 781f e93b 8a0f f53c
000000c0: 00a6 3d3b 565f e63c 9877 5a3c d012 663b
000000d0: 4e16 29bc 404f d63a b724 063d 28f3 eb3b
000000e0: 5330 c4bc 1829 46bc e3c5 04bd 4327 de3c
000000f0: dd55 313c fcab 933c 6d24 7bbc f11f 0ebd
00000100: 1200 02bc 2077 3ebb 281a da3c 1125 5b3b
00000110: 1b82 05bc 63a3 013d 90a1 6c3c 3afe 3fbc
00000120: 8e1b 64bc 6e35 e83c d716 76bc 2e85 f0bc
00000130: 6c80 c23b 5abd fe3b 4590 f63c f09d 08bb
00000140: 3c09 673c d8f8 993c 6ba1 00bd 92f4 05bd
00000150: 1021 37bb 7e33 b7bc 34e9 7f3c 87e6 913c
00000160: 955a 09bb 6594 0fbd 4042 b7bc 1d24 31bc
00000170: b93b 01bc a29e cb3b 24a3 0a3d 0a57 e03c
00000180: b087 9b3c 0826 bdbc e253 6b3b f772 11bc
00000190: 89f4 f53c 5715 53bb 74dd 2ebb 0bb4 3b3c
000001a0: b7fc 363c 7e4d 1dbb 80c1 1a3c bd8f 82bc
000001b0: 4302 e2bb 9a8b c63a fe36 fd3c c7eb 073d
000001c0: 0e0c 57bc 5ce1 be3c 8022 04bb cf7b 753c
000001d0: 831e 93bc 41eb 10bd 8502 3a3c 2012 0a3d
000001e0: 239e a03b cc95 e2ba 8ce9 bfbb e7fb 0fbc
000001f0: 778e 4a3c 6afb 01bd 765b fe3c 8fa5 633c
00000200: 359b c03b f825 49bc b094 e33c fd77 8fbc
00000210: d8b2 d6bb aeef 503c 39c9 d8bc 966c 383c
00000220: 33f0 ce3b 4ce2 55bc 48da e3ba 0ca9 c7bc
00000230: def6 efbc f064 033c e533 e0bc 147e c13c
00000240: c039 0bbb fab8 ee3c d7e7 08b9 0a14 a23c
00000250: 8f1f e7bc 4c81 bbbb 2df9 24bc 1797 f7bb
00000260: 1aff 0f3d 8ae9 b9bc 0b31 7fbc d8bd 023d
00000270: 8f6e 0abc 367c 873c f658 af3a 630e 5cbc
00000280: 58b5 0c3d a64b 8dbc e997 c2bc ffb8 cf3c
00000290: cf67 90bb 1177 5bbc 4152 08bb 1e13 df3c
000002a0: 753e 0dbd 67a5 073d 750b d4bc 2be6 07bd
000002b0: 74c6 95bc 5e04 993c b801 803c 2755 c63c
000002c0: fd19 ffba ea82 eb3b 08a5 e9bc 5acc 653a
000002d0: e1b5 93bc e55e c3bb 1594 09bc 6691 6ebc
000002e0: 7f6e 013d 9700 b2bc ac15 b6bc f4e0 b13c
000002f0: 5faf 953c 21cf cd3c 70e4 393c 4019 8cbc
00000300: d1d3 a4bc 1b3d 6ebc 9b15 3cbc b963 893c
00000310: 66c0 07bd 7e81 83bc 8654 083d ecaf e6bc
00000320: 515d 0abd 5f10 b4bc cb63 acbb 0884 613c
00000330: cce4 063d 4339 1d3c 452b 16bc e26d 62bc
00000340: e210 39bc 8882 5e3c a1f0 49bc e396 0d3b
00000350: 6ed8 92bc 5860 073d 3f93 c0bc 4694 023d
00000360: 6229 d93c 1990 1f3c 6814 52bc 7cf8 f53b
00000370: 44f7 e3bc 11aa e6bc 0e09 dbbb 9711 47bc
00000380: b246 fe3a d038 f13b 3d83 27ba 76d5 85bc
00000390: 713c 9e3c d669 a13c 29a6 03bd bf16 03bd
000003a0: 263c 983c f79f 73bb 707e ef3b 3f90 2fbc
000003b0: eee9 5b3b 704c 92bc 3655 1e3c 52f5 08bd
000003c0: e47b 85bc 1a5d dfbc 5500 20bc 2209 c63c
000003d0: 8c67 13bc 1de2 ab3c 9ccd 67bb ef8d c9bc
000003e0: e4e7 bf3b f6de f73a bf9e 42bc 368e ee3c
000003f0: 1ecc e9bc 2a1a d93c de22 ab3c 0fad 7f3c
0.014634866 0.032285307 0.022750542 0.02778143 0.029972684 0.0057750978 0.033868823 -0.014779972
0.01881117 0.013160352 0.022171758 -0.013567405 0.01680372 -0.019538898 -0.004678998 -0.026310552
-0.003630679 -0.012438541 -0.033945154 0.024158452 -0.035519402 0.035343464 0.013649184 0.029576983
-0.012955563 0.031215701 -0.026740441 0.015632272 -0.023107445 0.01024013 0.028238486 0.024151493
0.005500514 -0.014446029 -0.02042025 -0.027540348 -0.017481579 0.019434862 0.0031071417 0.011115335
0.014880174 0.008136269 -0.027937874 0.0135420505 -0.015815614 -0.0060251765 0.007114347 0.029914636
0.0028938055 0.028121632 0.013334177 0.0035106428 -0.010320259 0.0016350523 0.032749858 0.0072006173
-0.023948824 -0.012094758 -0.032415282 0.02711833 0.010823694 0.018026344 -0.015328509 -0.03469843
-0.007934587 -0.0029062703 0.0266238 0.0033438841 -0.008148695 0.03164996 0.014442816 -0.011718327
-0.013922585 0.02834579 -0.015020094 -0.02936038 0.0059357192 0.0077740373 0.03009809 -0.0020846091
0.014101323 0.018795416 -0.03140394 -0.032703944 -0.002794329 -0.02236342 0.015619565 0.01781012
-0.0020958532 -0.03505363 -0.022370458 -0.010811833 -0.007887774 0.006213979 0.03384699 0.027385253
0.0189856 -0.023089424 0.0035908152 -0.008877507 0.03002383 -0.0032208764 -0.002668229 0.0114565
0.01116865 -0.0024002488 0.009445548 -0.01593768 -0.0068972423 0.0015147806 0.030910011 0.03318384
-0.013125433 0.02330082 -0.0020162165 0.014983132 -0.017958885 -0.035380606 0.01135314 0.03370869
0.004901664 -0.0017287075 -0.0058566984 -0.008788086 0.012363068 -0.031733908 0.031049471 0.013894453
0.005877877 -0.012277119 0.02778086 -0.01751327 -0.0065520816 0.012752457 -0.026463138 0.011256358
0.006315255 -0.013054442 -0.0017383778 -0.0243726 -0.02929252 0.008019671 -0.027368495 0.023619689
-0.0021244138 0.029140938 -0.00013056338 0.019784946 -0.02821329 -0.0057222005 -0.010069174 -0.007555853
0.035155393 -0.022694368 -0.015575658 0.03191933 -0.008449211 0.01653872 0.0013377953 -0.013431164
0.03435263 -0.017247986 -0.023754077 0.025356768 -0.004406906 -0.013395087 -0.002080098 0.027230795
-0.03448339 0.033116724 -0.02588437 -0.03317849 -0.018283106 0.01867884 0.01562582 0.024210526
-0.0019462701 0.007187237 -0.028521076 0.00087661075 -0.018031063 -0.00596224 -0.008397122 -0.014561033
0.031599518 -0.021728797 -0.02222713 0.021713711 0.0182721 0.02512318 0.011345968 -0.017101884
-0.020120533 -0.014540936 -0.0114797605 0.016771184 -0.03314247 -0.016052958 0.033283733 -0.028160058
-0.0337804 -0.021980463 -0.0052609197 0.013764389 0.03293304 0.009596172 -0.00916559 -0.013820143
-0.011295529 0.013580926 -0.012325437 0.0021604828 -0.017925467 0.033050865 -0.023507712 0.031879686
0.02650899 0.009738945 -0.012822248 0.0075064283 -0.027827866 -0.028157266 -0.006684429 -0.01215019
0.0019399731 0.007361509 -0.00063901005 -0.016337138 0.01931593 0.019703787 -0.032140885 -0.032004114
0.018583369 -0.0037174204 0.0073087737 -0.010715543 0.003355618 -0.017858714 0.009663871 -0.03343708
-0.016294427 -0.027266074 -0.009765704 0.024174277 -0.0089968555 0.020981843 -0.0035370355 -0.024603812
0.005856501 0.0018911052 -0.011878668 0.029120546 -0.028539713 0.026501734 0.02089065 0.015605225

0.bias f4 [30]
00000000: 5bdb 06ba 8b5b 803d e909 99bd 735d 9bbb
00000010: 9b13 a43c 4d93 8ebd 6b5b 8cbc 47ca 823e
00000020: 4d7f 573a 8e1b b4bd d721 d43d 71dd eb3d
00000030: 2e49 e83d 85d9 a7bc 1397 3fbe bf8b b83d
00000040: 825d 043d 1627 0ebc 7149 39bd 57f2 e1bc
00000050: 7537 993e 55b1 0ebe cb72 2939 d503 23bc
00000060: cbf6 9bbd 3bf4 183d ba7e 94bc af63 e0bd
00000070: f797 db3c 5d0c 933e
-0.0005144381 0.062674604 -0.07472593 -0.0047413646 0.02002888 -0.06961689 -0.017133435 0.2554495
0.00082205684 -0.08794318 0.10358017 0.11516846 0.11342083 -0.020489464 -0.18709974 0.090110295
0.03231574 -0.008676311 -0.045236055 -0.027581377 0.29925123 -0.13934834 0.0001615986 -0.009949644
-0.076154314 0.03734229 -0.018126834 -0.10956513 0.02680586 0.2872037

2.weight f4 [1, 30]
00000000: e858 b43b c856 51be 8e2d 013f 271c d9bd
00000010: e13b 19be 5784 c73e dfc9 803e 7037 63bf
00000020: 34c6 56bd c87c 2d3f 9e38 f1be fce6 d2be
00000030: 725f aabe 5bef 763e c21d 653f 0d52 d6be
00000040: 0ce5 b3bb eab8 1a3d 036d f63d 3286 e2bb
00000050: 1da5 7ebf ba5c 723f 1b57 cd3d 4e9c debd
00000060: 28c6 af3e 2295 fabd 611e 903e 5533 313f
00000070: 938a ebbd 328a 83bf
0.0055037625 -0.2044326 0.50460136 -0.10601073 -0.14964248 0.38968155 0.25154015 -0.88756466
-0.052435115 0.67768526 -0.47113508 -0.41191852 -0.33275944 0.24114744 0.8949853 -0.41859475
-0.005489951 0.037774004 0.12032511 -0.00691297 -0.9947069 0.9467274 0.1002638 -0.108696565
0.3433087 -0.12235476 0.28148177 0.6921895 -0.1150104 -1.0276549
